src/assets/models/mnist.onnx (onnx, 318521 bytes, 4 tensors)

l1.weight f4 [100, 784]
000000 e2 3b fe 3c 39 d9 11 bc f9 7f 12 bc bb 92 96 3b
       0.031034414 -0.008901888 -0.008941644 0.0045951284
000010 9b fb 10 3d 3f 26 03 bc 16 11 26 3c 90 79 f5 3c
       0.0353962 -0.008004724 0.01013591 0.029965192
000020 d5 2a 07 3d 81 ae a3 3c 79 f3 db bb c1 30 38 3d
       0.032999832 0.01998067 -0.006712374 0.04496837
000030 f9 85 52 bc be 29 06 3d 66 b3 cf 3c f9 2d eb 3c
       -0.012849324 0.032754652 0.025354099 0.028708445
000040 09 7d 11 3d d4 3f 01 3c 40 18 a8 bc 63 52 0b 3d
       0.035519633 0.007888753 -0.020519376 0.034014117
000050 00 e8 ce 3b 37 76 9e 3c 45 f3 bd bc b0 72 05 bb
       0.0063142776 0.019343479 -0.023187289 -0.0020362549
000060 32 63 76 3c 23 4b 33 3d fa 84 18 3d e9 9f a9 3c
       0.015038298 0.043772828 0.03723619 0.020706134
000070 d6 99 dc ba b8 0a 3b 3d aa fe d7 3c 4f dd f5 3c
       -0.0016830515 0.04566452 0.02636655 0.030012755
000080 bb 4a 18 3d 34 5d 11 3b 46 b6 e6 3c 3a 7f 67 3c
       0.037180644 0.0022180798 0.028163087 0.014129454
000090 cc 98 13 3c 7f 0f 75 bc b8 e3 0d bc 48 1c 1a 3d
       0.009008598 -0.014957308 -0.008660249 0.037624627
0000a0 0c 18 80 3c 1c f2 e2 3c 1d 34 21 3d 44 b0 5a bb
       0.015636466 0.027703337 0.03935634 -0.0033369223
0000b0 e6 ea fb 3c 3d b7 10 3c b1 61 01 3d f9 72 d3 3c
       0.030751657 0.00883275 0.031587306 0.02581166
0000c0 9e 32 3e 3d 01 6e f6 bb ac c8 32 bb 77 e8 e0 3c
       0.04643499 -0.0075204377 -0.0027280254 0.027454598
0000d0 62 de e1 ba 99 c3 61 3c c1 95 ac bc 0f b4 80 3c
       -0.0017232413 0.013779544 -0.021067502 0.015710859
0000e0 df e3 14 3c f0 bc 9e 3c 81 21 bf bc a5 fa 06 bc
       0.009087532 0.019377202 -0.023331406 -0.008238469
0000f0 14 63 20 bc 67 0e ab 3c 6b cb c2 bc 0a 6b 80 ba
       -0.009789247 0.020880891 -0.023778638 -0.0009797525
000100 4c 64 8d bb f0 91 90 bc da 0a 8b 3a a9 ac 41 bc
       -0.004314935 -0.017647713 0.0010608092 -0.011820951
000110 c5 5a 81 bc 45 5e 44 3c 49 7c 5e bb 52 e1 01 3d
       -0.015790353 0.011985366 -0.0033948591 0.031709023
000120 d3 e0 da bc 86 07 61 ba 8c 52 0a 3d eb 80 c0 bb
       -0.026718533 -0.000858419 0.03377013 -0.005874743
000130 e2 26 67 3c 22 fc 75 bb 62 53 0b 3d fb d8 99 3c
       0.0141083915 -0.0037534316 0.034015067 0.018780222
000140 ea 0c 03 bb 02 a4 1c 3d a8 eb 0d 39 f9 c5 12 3d
       -0.001999671 0.038242348 0.00013534597 0.035833333
000150 6e 5c db ba e3 d3 ca 3c 2c 10 e2 3a 6a d3 e5 ba
       -0.001673592 0.024759239 0.0017247251 -0.001753432
000160 4d 5c 28 3d 10 8a 2a 3d 4e 6a b8 bc 40 2b 0f bc
       0.04110365 0.041635573 -0.022511628 -0.008738339
000170 76 8e 04 bd 6a 0b 16 bd 2a 00 ac 3a 6e 50 d9 bc
       -0.032362424 -0.03663198 0.0013122607 -0.02652761
000180 38 59 5f bd 2e fa 80 bd 72 ba 9e bb 25 0b 79 bd
       -0.054528445 -0.06297718 -0.0048440034 -0.060801644
000190 08 34 b5 bc 18 ae c3 bc f4 e7 98 bc 27 49 46 bb
       -0.022119537 -0.023886725 -0.018665291 -0.0030256005
0001a0 69 13 d5 3c 7c 34 85 3d 3f 50 87 3d ca 30 8e 39
       0.026010232 0.06504151 0.066071026 0.000271207
0001b0 95 39 ea 3b 28 2e de 3b ae 75 aa 3c a0 62 58 ba
       0.0071479776 0.0067804046 0.020808067 -0.00082544424
0001c0 1f 41 06 3d 07 7c 03 3d f0 03 52 bc da 27 85 3a
       0.032776948 0.032100704 -0.012818322 0.0010158971
0001d0 bf dd 23 3d 4a 8c f6 bc b5 4f 14 3c 8f de 32 bd
       0.040006395 -0.030096192 0.009052207 -0.04366928
0001e0 2d 39 b4 39 39 2d 15 bd 2c 42 8f bd 98 4b e1 bc
       0.00034374875 -0.03642008 -0.06995043 -0.027501866
0001f0 24 4a ba bc 4d f9 d0 bb 07 f9 3f bc ff 06 4d bd
       -0.022740431 -0.006377375 -0.011717088 -0.0500555
000200 eb 0c 68 3c c8 35 5c bc c2 a2 49 bd 83 e6 a3 3c
       0.014163236 -0.013440557 -0.049227484 0.020007377
000210 3e 51 10 3d e9 c0 fb 3b 69 64 d4 3c 32 b8 9b 3d
       0.03523373 0.007682909 0.025926786 0.07603492
000220 2c c3 20 3d c1 02 0e 3d 94 55 4b 3c 24 2a a2 3b
       0.03924863 0.034670595 0.01241054 0.004948871
000230 d0 84 17 3c b5 a2 d6 3b 8d 7e 8b ba b1 37 1b bc
       0.009247974 0.006550158 -0.0010642573 -0.009473727
000240 e3 10 c1 3a fe 23 81 3c cf ef 14 bd d9 65 81 bc
       0.0014729764 0.015764233 -0.03636151 -0.015795635
000250 35 21 b9 3c dc d2 45 bc 32 dd 30 3c e1 37 ba 3c
       0.022598842 -0.012074199 0.010794925 0.022731723
000260 c1 f7 a5 3d fd 82 4a 3d a1 76 51 3d 15 77 e9 3a
       0.08103896 0.049441326 0.051138524 0.0017811978
000270 9b ca fd bc da 80 84 bd 33 10 60 bd 48 99 ee 3a
       -0.030980399 -0.06469889 -0.05470295 0.001820364
000280 8a a6 cd bc 2b 35 24 bd f6 17 ec bb 8c 82 0b 3d
       -0.025103826 -0.040089767 -0.007205005 0.034060046
000290 b6 bb 21 3d 3f f1 e7 3c 36 ce 8a 3c 69 b5 b1 bc
       0.039485656 0.028313277 0.016944032 -0.021692948
0002a0 c7 4a 07 bc e6 a2 ac 3c 37 2d 6c 3c da d1 80 3c
       -0.008257574 0.02107377 0.014415077 0.015725065
0002b0 49 cb 00 3c 14 36 90 bc ea 68 97 bb 5c 61 1e 3c
       0.007860967 -0.017603911 -0.004620661 0.009666767
0002c0 0d 21 5f 3c d3 49 fd 3c 53 67 16 3d 81 0d 75 3c
       0.01361872 0.030918991 0.03671963 0.014956833
0002d0 70 57 b3 3c fe 79 81 3c bf 2d 2e 3d 47 17 80 bc
       0.02189228 0.01580524 0.042524096 -0.0156361
0002e0 9d f3 61 bc 0f ab 9e 3b 7a 72 12 bd 0b 42 65 bc
       -0.013790992 0.004842169 -0.035753705 -0.013992797
0002f0 c0 a1 8b bd 34 9c 12 bc 52 03 9d 3c 69 d1 0e 3d
       -0.06817961 -0.008948375 0.019166622 0.034867678
000300 b3 a9 51 3c af 42 e3 bc 16 46 b5 3c f2 e4 fd 3c
       0.012796807 -0.027741758 0.022128146 0.030992959
000310 e9 93 c2 3c 22 ac 20 3d e7 a0 27 3d bd b7 1c 3c
       0.02375217 0.03922666 0.040924933 0.009565291
000320 e7 19 dd bc 02 4c 04 bd f5 57 a9 ba 40 0c 0a bc
       -0.02698989 -0.03229905 -0.001291989 -0.008425772
000330 1d 53 03 3c 74 ba 7f 3c dd 23 e4 3c 52 57 ed 3c
       0.008015421 0.015608419 0.027849132 0.028972302
000340 8f 90 fa 3c 41 e8 f2 bc 06 cf af bc ed 00 2d bc
       0.030586509 -0.029651763 -0.021461021 -0.010559303
000350 07 ac 00 3d 16 06 9e bc 91 12 ef bc b8 ac 72 bb
       0.031414058 -0.019290011 -0.029183658 -0.0037029218
000360 92 41 3a bc 41 19 46 bd 6c 6a 26 3c 09 f4 4f 3d
       -0.011368172 -0.048363928 0.010157209 0.05076984
000370 96 a3 e0 3c 83 e9 f0 bb a2 50 be 3c d1 da 36 3c
       0.027421754 -0.0073520555 0.023231808 0.011160568
000380 71 65 4a 3c 0b ca f7 3c f1 ce c3 39 0b 39 c6 bc
       0.012353287 0.030247709 0.00037347482 -0.024197122
000390 0b e7 42 3c c6 44 1f bc 1c 5f 43 bc f7 c3 0d bd
       0.011895905 -0.009720987 -0.011924531 -0.034610715
0003a0 bb 32 78 3d 43 bb d9 3c 95 cf a8 bb 27 c1 4c bc
       0.060595255 0.026578551 -0.005151699 -0.012497223
0003b0 c9 c2 21 bd c2 d6 86 bd 9a 8d 8a bd db 9b d5 bc
       -0.039492402 -0.065839306 -0.067652896 -0.026075294
0003c0 6a 4d 00 bd 99 62 38 3b 07 57 18 3c a8 ca 40 bd
       -0.031323828 0.002813494 0.009298093 -0.047068268
0003d0 dd d5 eb bc c5 24 b9 bc ef c5 2e bd 4f f2 31 3c
       -0.028788501 -0.02260054 -0.042669233 0.0108609935
0003e0 7f 85 e4 3c 44 46 ef 3c 92 26 85 3b 7e d7 c8 3c
       0.027895687 0.02920831 0.004063436 0.024516817
0003f0 8c cd 94 3b 42 a3 05 3d 75 6b 90 3c 76 a3 63 3b
       0.0045411047 0.032626398 0.017629365 0.0034734881

l1.bias f4 [100]
000000 14 c1 28 3c fe 55 af ba 85 0a 43 bc 0e 23 ce bb
       0.01029994 -0.0013377068 -0.0119043635 -0.0062908
000010 ba 91 37 3c 8c 67 28 bd 41 15 1d 3c f6 ca f6 bb
       0.0112041775 -0.041114375 0.009587587 -0.007531519
000020 c8 94 08 3c 3d 44 a2 bc a7 d8 2e 3c c6 fc d5 bc
       0.008336253 -0.01980793 0.010671771 -0.026121508
000030 e7 78 49 bc 44 7d 30 3c d5 82 92 bc c0 30 03 bc
       -0.012296892 0.010772053 -0.017884651 -0.008007228
000040 94 72 a4 bc 13 c9 83 3c fb e3 00 3c 4d 42 14 3d
       -0.020074166 0.01608709 0.007866855 0.03619604
000050 b6 19 93 3c 85 c2 21 3b 35 18 ec 3b f5 4a 98 3c
       0.017956596 0.0024682593 0.007205034 0.01859043
000060 94 d9 22 3d 67 d8 0c bd c2 ca 79 bc 9a c2 93 bc
       0.03975828 -0.034386065 -0.015246095 -0.01803713
000070 bd 7c 39 bc 9b 87 40 3c 31 f3 f3 bb 47 fb 1a 3d
       -0.011321244 0.011751081 -0.007444762 0.037837293
000080 f7 b5 f3 3b 70 be ce bb 86 1a c5 3c e0 8f c7 bc
       0.0074374634 -0.006309323 0.024060499 -0.024360597
000090 f7 c6 07 bb 25 7c a8 bc a7 1a 2d 3d 8d a7 24 bc
       -0.0020717958 -0.02056701 0.042261746 -0.010049713
0000a0 ee 97 11 3b 8e db ea 3b 6e af 1a 3d a1 57 d7 3c
       0.0022215801 0.0071672862 0.03776496 0.026286902
0000b0 43 e6 1f 3b 17 8e b1 3b 11 99 ba bb 1b d2 c1 bc
       0.0024398721 0.0054185498 -0.0056945165 -0.023659756
0000c0 cb 77 16 bb c1 58 a2 bc 82 38 e2 bb 77 ef 33 bc
       -0.0022959586 -0.019817712 -0.006903709 -0.010982386
0000d0 41 58 07 3c b9 e9 88 3c f2 69 e3 bc e5 ad b8 bc
       0.008260787 0.01671301 -0.02776048 -0.022543857
0000e0 23 63 6e bc 37 94 01 3c 03 da 07 bd a5 94 0f bc
       -0.014550003 0.007908872 -0.033166897 -0.008763467
0000f0 b0 6a cd bc 11 ea 8b 3b 30 11 48 3a 63 f6 1b 3c
       -0.025075287 0.0042698462 0.00076319557 0.009519192
000100 13 d6 15 3d ef 7a 6d bb 7d 23 db 3b e9 40 6c bc
       0.03658111 -0.0036236604 0.00668758 -0.014419773
000110 30 5d f1 3c 46 46 8c 3c 06 a1 da ba c2 2b 70 bc
       0.02946338 0.017123353 -0.0016680069 -0.01465887
000120 05 7b ef 3b 14 43 e3 bc 3a 6c 1e 3d 78 b9 04 bd
       0.0073083662 -0.027741946 0.03867743 -0.03240344
000130 0f 51 b1 3c 8f ad 77 bc fb 29 20 3d 99 bd 4c 3c
       0.021645097 -0.015117063 0.039102536 0.0124963755
000140 71 5f 82 3c 7b 93 a4 3b 42 d0 7c 3b 68 83 75 3a
       0.01591465 0.005022464 0.003857628 0.00093655894
000150 78 9c 24 3b ab 06 bb bc 99 f3 21 3b c2 c1 fe 3b
       0.0025117677 -0.022830328 0.0024711846 0.0077745626
000160 40 ab dd bc 69 15 4b 3c 0f e6 b9 3a c1 fc c3 3c
       -0.027059197 0.012395241 0.0014182943 0.023924233
000170 4f 8f 16 3c 78 95 e7 bc 61 4f 1f bd fb 05 b8 3c
       0.009189441 -0.028269514 -0.03889406 0.02246379
000180 88 56 3c 3c 3f b4 ef 3c 39 b5 c7 bb 44 7c 16 bc
       0.01149524 0.029260753 -0.0060946015 -0.009184901

l2.weight f4 [10, 100]
000000 6f 29 f8 bb a7 2b e9 3c e0 86 ac bd f2 53 cf 3d
       -0.0075732986 0.028463198 -0.08424163 0.10123433
000010 c2 d2 30 3d bf 23 60 3d 8b 61 6c be 18 e6 cf bd
       0.043169744 0.05472159 -0.23084085 -0.10151309
000020 e0 29 ae bd b7 01 e2 bc f4 85 85 bd 75 87 86 3d
       -0.08504081 -0.027588708 -0.0651969 0.06568805
000030 5a 67 1b be f6 68 fd 3d f5 96 b2 3d d9 4c 21 bd
       -0.15176144 0.12373535 0.08720199 -0.03937993
000040 32 6e 05 be 3c b1 49 bd 5c d4 1b 3e 14 7f 20 be
       -0.13030317 -0.04924129 0.15217727 -0.15673476
000050 25 c4 d7 bd 7d af a3 3d 7a 97 84 bb 74 a2 cc 3d
       -0.105354585 0.07992456 -0.0040463777 0.09991923
000060 f3 b8 95 3d 09 1b 84 be 24 5d 3f bd 50 ff 40 3c
       0.07310667 -0.25801876 -0.046719685 0.011779621
000070 28 1e ea 3b 18 4a 0e 3d 0e cb 15 be e4 33 3d be
       0.007144708 0.03473863 -0.1462824 -0.18476826
000080 63 dd b5 3c 7c 02 25 3c 17 5e 16 3e 94 74 05 be
       0.022200292 0.010071393 0.1468433 -0.13032752
000090 1a a3 18 bc 5e 86 0b bd 67 64 6a bd b2 66 13 3c
       -0.00931623 -0.03406369 -0.057224657 0.008996652
0000a0 76 e6 94 bd fb 92 c0 bd ad 1f a8 3d 77 b8 0f be
       -0.072705194 -0.09403034 0.08209167 -0.14035212
0000b0 51 da de bc 80 6c 5f 3d f7 30 0b 3d 50 ef 1f be
       -0.02720371 0.054546833 0.033982243 -0.15618634
0000c0 63 2d f7 3d fc 01 c4 3d 4f 9e e7 3d 3c 1b 3c bd
       0.12069204 0.09570691 0.11309492 -0.04592441
0000d0 8d 76 2b 3e 40 e9 bc 3d 24 4f 95 bd 81 8d 1f 3d
       0.16744442 0.092241764 -0.072904855 0.038953308
0000e0 dd 07 8a be a3 0f c4 3d 95 25 e0 3c 05 f0 25 be
       -0.26959124 0.09573295 0.02736167 -0.16204841
0000f0 08 82 d8 bb 39 0d 60 bd 7e 03 8c bd 09 d9 8f bd
       -0.006607298 -0.05470011 -0.068366036 -0.07023818
000100 62 ca ab bd 0a 96 1d be 8a c9 56 bc 6b 44 88 bd
       -0.08388211 -0.15389267 -0.013109574 -0.06653675
000110 90 4d 1c be 26 fe f0 3d f9 39 df bd 4d 7d ee 3d
       -0.15263963 0.11767225 -0.10899729 0.11644993
000120 2c cb 0a 3e 9c 81 ab bc 6e ca 1a 3d 96 07 be bd
       0.13554066 -0.020935826 0.03779071 -0.09278791
000130 cb c5 9f 3c 5c 61 8a 3c bb 19 af 3d d0 a9 a4 3d
       0.019503495 0.016892128 0.085498296 0.08040202
000140 94 18 36 bd fd 45 2e 3d b6 aa 65 bd ce 19 99 bd
       -0.044457033 0.042547215 -0.056071006 -0.07475625
000150 00 aa 85 bd ea 81 fc 3d 43 13 e9 3d 22 ec 15 3b
       -0.065265656 0.12329467 0.11380627 0.0022876342
000160 6b 53 28 be e4 39 1f be a0 a2 fe bc 1a cc 82 3d
       -0.16438071 -0.15549427 -0.031083405 0.063865855
000170 c6 bb 05 be 2f 08 0a 3e 3b 85 f0 3c 3d 5d 07 be
       -0.13059911 0.13479684 0.029360404 -0.13219161
000180 a3 4c f3 bd 48 9d 83 3d 5f e3 2a 3d 78 72 93 3d
       -0.11879852 0.064264834 0.041720744 0.071995676
000190 43 77 0c be af 07 10 be 0a 33 27 be b2 92 24 be
       -0.1371737 -0.14065431 -0.16328064 -0.16071585
0001a0 1b 13 c4 3b 58 55 9e bd 6d 3a 27 3d f1 c3 08 bc
       0.005983723 -0.07731122 0.040827204 -0.008347497
0001b0 19 dd 3f 3d 5b 4f 5e 3d 52 2e 1f bc b5 fc 0b 3e
       0.046841715 0.054274898 -0.0097156335 0.13670619
0001c0 c6 e0 ce bd 97 4d fb 3c f8 3f ef bd b0 a1 d9 bc
       -0.10101466 0.030676646 -0.11682123 -0.026566356
0001d0 08 fd 9d bd fc 5f 6c 3d ff e7 fe 3c 68 26 09 3d
       -0.077142775 0.057708725 0.031116484 0.033483893
0001e0 fb 3c 95 3d ee 65 9b bd cc 6e f8 3d 2f 4c 7d bc
       0.07287022 -0.07587801 0.12130508 -0.015460058
0001f0 cb 76 75 3d 43 e8 58 3d ea 49 29 3d df d3 23 3d
       0.059927743 0.052955877 0.041330256 0.039996978
000200 29 cf 8d 3d 59 04 80 be e1 0f 46 3d 3e 46 97 bd
       0.06924278 -0.25003317 0.048354987 -0.073864445
000210 93 bd e6 3d 2a 44 d2 bd 2c bc 13 bd 82 f1 37 3e
       0.11266627 -0.102669075 -0.036068127 0.17963222
000220 d3 4a 16 be d5 d1 18 be f3 08 9e bd 88 12 41 bd
       -0.1467698 -0.14923795 -0.07716551 -0.047136813
000230 e4 de ba 3c 6f ce f4 bd 06 27 10 be 2c 04 4a 3d
       0.02281136 -0.119534366 -0.14077386 0.049320385
000240 fe 0e 0e be 0c 48 14 be 84 df 0b be 62 5c 47 3e
       -0.13872907 -0.14480609 -0.13659483 0.19468835
000250 60 b7 7e 3e bb 24 d5 bd d0 63 99 3d b6 91 8e 3d
       0.2487464 -0.104073964 0.07489741 0.06961386
000260 44 0f 6a bd 56 da b7 3d d0 89 8b bd 9c 77 21 be
       -0.057143465 0.08977191 -0.06813395 -0.15768284
000270 ba af 21 3d 84 2f 98 bc 97 ce 02 be 84 17 f9 3c
       0.039474227 -0.018577345 -0.1277412 0.030406721
000280 8c 0b 14 bc 9d 0d c9 3c 63 11 5c 3d 67 b8 cc bd
       -0.009035956 0.024542624 0.05372752 -0.099961095
000290 a0 e8 b2 3d ee 42 f1 3d 5b a9 32 bd fd b8 3c 3d
       0.08735776 0.11780344 -0.04361854 0.046074856
0002a0 18 f8 35 be e9 0b bd 3d 12 2a dd 3d f3 17 dd 3d
       -0.17770422 0.09230787 0.1079904 0.107955836
0002b0 2f dc 94 bd ef 09 e4 3d 70 f6 18 be d2 0a f3 3b
       -0.07268559 0.11134707 -0.14937758 0.0074170614
0002c0 df 55 e9 bd 8a aa a9 3b 5d e1 7b bd 3b d3 3f 3d
       -0.11393332 0.0051778005 -0.06149422 0.046832304
0002d0 aa 95 f7 bd 8d 7b b1 3d 60 bb fd 3d 6e 1a 7d 3d
       -0.12089093 0.086661436 0.123892546 0.061792783
0002e0 c6 7b 48 3d 12 9b 29 be cd 86 8b 3d c4 35 1d be
       0.048946165 -0.16563061 0.068128206 -0.15352541
0002f0 0e 55 b4 3d 4d 9e 14 bd 9e a6 55 3e 85 a5 52 be
       0.088052854 -0.03628378 0.2086434 -0.20570953
000300 f5 59 52 bd 21 ad 2b 3e 43 8e 16 3d 3f f2 63 bc
       -0.05135532 0.16765262 0.036756765 -0.013912736
000310 4e 48 e0 3d 6d fb 54 be 1f 13 f1 3d 75 06 40 be
       0.10951291 -0.20799036 0.11771225 -0.18752463
000320 23 77 02 be 5a b7 5a bd 10 a1 57 be fa ce bb 3d
       -0.1274076 -0.053397514 -0.21057534 0.09170337
000330 8e 50 1f bd 3c 53 ef bd 72 be 0d bd d1 40 14 3e
       -0.038895182 -0.116857976 -0.03460545 0.1447785
000340 a5 73 80 be b7 e5 d2 3c b1 a3 2b bd 43 b6 ae 3d
       -0.2508823 0.025744302 -0.041904155 0.085308574
000350 ed b2 83 bd ad 5e 30 3e 2a 46 aa bd 7b 5f 64 3e
       -0.06430612 0.17223616 -0.08314164 0.22302048
000360 ff be e3 3d 79 6f 27 be a8 ac 5d bd 6d e1 b7 3d
       0.11120414 -0.16351117 -0.054119736 0.089785434
000370 6b ff e7 bd ed 98 17 bb 0e 81 27 3e 9d ac 56 3d
       -0.11328014 -0.0023131922 0.16357824 0.05241071
000380 a1 20 f4 3d ed 08 b2 3c 84 3a 13 3e 07 f6 26 bd
       0.11920286 0.021732772 0.1437779 -0.040761974
000390 de 6d 9c 3d 4b c9 ae 3d f7 14 17 3e a3 ef c1 3d
       0.07638143 0.08534487 0.14754091 0.09469535
0003a0 63 ce fd 3d 4a 30 0f bd df 09 aa be 26 f0 a6 3d
       0.12392881 -0.03495816 -0.33210656 0.081512734
0003b0 14 27 d2 bb a5 57 d1 3d 6c bf d8 3d f3 49 ca bc
       -0.00641335 0.10221795 0.10583386 -0.024693465
0003c0 2c 26 24 3e 55 ed 00 3d e3 e6 0a bd f4 95 7d bd
       0.16030186 0.031476337 -0.033911597 -0.061910585
0003d0 2c 98 93 3c a0 c0 db bd a2 ce 86 be be e1 07 3d
       0.018016897 -0.107301 -0.26329523 0.03317427
0003e0 3b ae 35 3d 3c 92 34 3e 06 b1 da 3d b5 58 42 3e
       0.044355612 0.17633909 0.10678296 0.18979152
0003f0 e8 08 da 3d c8 08 75 bd 29 dc 31 3d 49 ce 02 3e
       0.1064623 -0.059822828 0.04342285 0.12774004

l2.bias f4 [10]
000000 30 e7 7c bd 18 0f eb bc 6c 34 b9 3d d0 da 95 bc
       -0.061743915 -0.02869372 0.09043202 -0.018292814
000010 db 56 9e bd 2c 3b 50 bd 33 92 65 bd df 4a 17 3c
       -0.0773141 -0.05083768 -0.05604763 0.009234159
000020 e1 be c0 3d fb ff ad 3d
       0.09411407 0.0849609
